time_series/model/lstm.pt (torch, 183409 bytes, 7 tensors)

lstm.weight_ih_l0 f4 [400, 1]
000000 a3 03 06 be d9 fa c0 bd 9d 9d fe 3d 63 0d 67 bd
       -0.13087325 -0.094228454 0.12432406 -0.05640925
000010 b0 1d 69 3d ed e1 f7 3d f9 b4 18 be 90 e2 0a be
       0.056913078 0.12103639 -0.14912786 -0.13562989
000020 4a 93 57 3c 6f ad b1 3c 1a 7d c7 3f ee 0c 21 3e
       0.013157675 0.021689145 1.5585053 0.15727589
000030 65 74 76 3e b1 be a4 3c 96 bd 6e 3d 3c 26 8b 3d
       0.24067838 0.02011046 0.058286272 0.06794402
000040 6a 48 a4 bd 91 19 e3 3d 9a bc 09 3e c2 d9 f4 bd
       -0.080216244 0.11088861 0.13450852 -0.119555965
000050 5e 6b 90 3c 20 93 a6 3d e9 04 42 3e c4 a8 1a be
       0.017629322 0.081335306 0.18947186 -0.15103441
000060 ae ac 75 be 3e 66 d1 bd 19 6b 45 be 74 71 b2 3d
       -0.23991653 -0.10224579 -0.19279136 0.08713046
000070 7a 70 04 3e ba 47 30 bc de 20 01 3e 67 e0 03 be
       0.12933531 -0.010759288 0.12610194 -0.12878571
000080 33 40 b5 bd 2b 5e 1b 3e 5e a7 6b 3c 20 32 0a be
       -0.08850136 0.15172641 0.014383165 -0.13495684
000090 e6 3e 99 bd 62 6a 74 3e e3 45 ee 3b a6 9b d6 bd
       -0.074827 0.23868707 0.0072715147 -0.10478906
0000a0 8a 41 ac 3d ad 52 2f be 75 2c 36 be 89 ba 0f be
       0.08410938 -0.17121382 -0.17790397 -0.14036001
0000b0 36 bd 3b bb eb a4 ab bc 8c e2 bc bd 74 52 37 be
       -0.0028646714 -0.020952662 -0.09222898 -0.17902547
0000c0 31 ea 81 3e 5e fc 3a 3f 13 b8 5c bd 89 27 2c 3d
       0.25373986 0.7304133 -0.053886484 0.04202989
0000d0 84 e0 a0 bd 3f 1b ae 3d 36 f4 85 3e c2 9a 12 be
       -0.07855323 0.085012905 0.2616288 -0.14316848
0000e0 36 6d 9c bc 97 db 4d bd 0e 88 14 be ae 44 64 bd
       -0.019095045 -0.050258245 -0.14505026 -0.05572956
0000f0 1c 94 94 3c 1a 1d 7b 3e 50 d6 69 3e f3 08 91 3d
       0.01813703 0.2452282 0.2283566 0.07081785
000100 b6 71 ec bc f2 4a 05 3c c5 6c 1d bf e4 2a 95 be
       -0.028862815 0.008135544 -0.61494094 -0.29134285
000110 04 7a 11 be 07 e6 87 bc 63 e1 1c 3e 29 47 d1 3c
       -0.14206702 -0.016589178 0.15320353 0.025546627
000120 5a 56 f3 bd 51 09 2e be 6b 6e fd 3b 12 eb d2 3d
       -0.11881705 -0.16995741 0.00773411 0.10298742
000130 89 f6 4e bc a6 4e 53 bd c8 a2 97 bd f7 03 d2 3d
       -0.012632021 -0.051588677 -0.07404095 0.102546625
000140 0b cc 82 3e cf 63 8a bd 7a 3d 53 3d 31 a5 d6 3b
       0.25546297 -0.06757318 0.0515723 0.006550454
000150 8f 28 d3 3d 47 90 9e 3c 73 f1 73 bd ac c9 94 bd
       0.1031047 0.019355906 -0.059556436 -0.07265028
000160 bf 8d 4c 3d 46 b3 3f be 0a f0 73 be 78 42 99 3d
       0.049939867 -0.18720731 -0.23822036 0.07483381
000170 71 8b 7c 3d 30 ad 26 bc 76 84 c6 3d b9 55 a7 bd
       0.06165642 -0.010173127 0.09693234 -0.08170647
000180 37 60 ab 3b 97 b4 cb bd fa f0 4c 3e 07 cc 2b 3e
       0.0052299756 -0.09946554 0.200138 0.16777049
000190 ea 01 b7 bd fd 19 e2 bc 35 54 7a 3e ac 39 6b 3d
       -0.08935912 -0.027600283 0.24446185 0.057428047
0001a0 3a 4d 72 bd 7a d4 c3 3c 56 87 9d bd a5 55 11 be
       -0.05915568 0.023905028 -0.07691829 -0.14192827
0001b0 b1 5f 02 be ba 35 06 be 8d 1c 2a bf 0e 2c 7b bd
       -0.12731816 -0.13106433 -0.66449815 -0.06132131
0001c0 e9 dd 5a 3e 66 78 0d 3d b5 78 0d bd a1 43 05 3e
       0.21373715 0.03453865 -0.034538943 0.1301408
0001d0 31 7e 8e bd a3 98 99 3d a3 1a 11 3e b8 65 77 be
       -0.06957663 0.07499816 0.14170317 -0.24159896
0001e0 da 95 af 3d df c1 49 be cf f9 b0 bb 05 4c 23 3d
       0.08573504 -0.19702862 -0.0054008733 0.03986742
0001f0 f1 4d c2 3c c8 23 28 bc 40 aa c8 be be 6b 58 bd
       0.023718806 -0.010262437 -0.3919239 -0.052837126
000200 68 a8 b0 3d 21 f7 88 bd 40 95 f5 3d a4 e7 69 3d
       0.08625871 -0.06687761 0.11991358 0.057105675
000210 fb eb f7 bd 0a 74 0f bf 43 65 7c 3d 82 8f 7e bd
       -0.121055566 -0.56036437 0.06162001 -0.06214858
000220 ba db ef bd 64 ca 74 3e 8d 4f 03 bd 6e d3 c3 bb
       -0.117118314 0.23905331 -0.032058287 -0.005976132
000230 54 d0 45 3d 66 87 bd bd 16 3d f2 3c ad 2c 23 3e
       0.04829438 -0.09254341 0.029570144 0.15935011
000240 1d 2d c3 bd 09 24 4f 3c 90 99 00 3d 29 1f d2 be
       -0.09530089 0.012642869 0.03139645 -0.41039398
000250 c5 a8 f1 3d dd 65 a4 be 0b e6 d4 bd b1 ff ac bd
       0.11799768 -0.32108966 -0.1039544 -0.08447207
000260 04 2a a8 3a 3f ba 9f 3d f2 41 ad 3b 19 58 51 bd
       0.0012829904 0.077991955 0.0052874023 -0.051109407
000270 c5 f2 63 bc eb a0 92 3d 1d 67 4b be ad 41 8e 3d
       -0.013912861 0.07159599 -0.19863553 0.069461204
000280 94 2f 98 bd 86 dd 4d 3e 42 d1 f6 be b2 7e d2 bd
       -0.0743095 0.20104036 -0.48206526 -0.102780715
000290 f2 1f ce bc 06 cd 86 bd b6 31 15 bf c8 0b df bd
       -0.025161717 -0.06582074 -0.5827898 -0.10890919
0002a0 92 cc 18 bf f7 45 81 bd f4 92 df 3c de c0 45 bd
       -0.5968715 -0.06312173 0.027291752 -0.048279636
0002b0 a8 c4 d7 3d 04 2f 00 be 01 e4 39 bd 72 3a d4 bd
       0.10535556 -0.12517935 -0.045383457 -0.1036271
0002c0 b0 b9 23 3d 68 59 ee bc d5 08 66 3c e9 ee b0 3e
       0.039972007 -0.029095367 0.014040192 0.34557274
0002d0 77 58 0d 3d dd f8 83 bd 6f ad 36 3d 70 68 b0 bc
       0.034508195 -0.06443951 0.044598993 -0.021534175
0002e0 4e b9 23 be 20 42 72 be 04 fb b4 bd 08 a0 29 bd
       -0.15988657 -0.23658037 -0.0883694 -0.041412383
0002f0 c9 7d 01 3c e6 01 07 be d6 f2 06 be 4c 3e 07 bd
       0.007903525 -0.13184318 -0.13178572 -0.033018395
000300 91 9b 90 bd e6 e2 00 3d 31 fb 4c 3d 98 02 2b be
       -0.07060922 0.031466387 0.050044242 -0.16700208
000310 28 76 2a bd 83 58 72 bd e5 f5 53 3e ef 9f 27 be
       -0.04161659 -0.059166443 0.2069927 -0.16369604
000320 01 6c f0 bd e9 8d ed bd 9a 6d 74 3d 38 cd c7 3d
       -0.1173935 -0.11599333 0.059674837 0.09755939
000330 be db db bd 84 59 88 3c 1c b4 49 3d e1 01 2c 3c
       -0.10735272 0.016644247 0.04924403 0.010498495
000340 ea da 13 3e f6 ea 0c be a1 e0 23 bf 01 15 5d 3d
       0.14438978 -0.13761505 -0.6401463 0.05397511
000350 db 25 a9 bb e2 ef c4 bd c0 0a b4 3d 37 ce f8 3d
       -0.0051619834 -0.096160665 0.08791113 0.12148707
000360 b1 69 78 3d 03 5f 6a 3d b2 84 cb bd 13 4b 45 bc
       0.06064767 0.057219516 -0.09937419 -0.012041825
000370 95 78 df bc 24 94 94 3d 88 7d 21 be d3 69 31 bc
       -0.027279178 0.07254818 -0.15770543 -0.010828453
000380 2c c2 cc 39 f0 6a 6b 3c 56 3e 38 be 3c 36 fe 3d
       0.0003905458 0.014368758 -0.1799253 0.12412688
000390 10 d6 3b be 88 fd 7c bb c2 b2 c9 3d de 09 b4 3d
       -0.18343377 -0.0038603265 0.098485485 0.087909445
0003a0 47 e9 67 3d eb 8e 83 be 58 ed 09 3e e3 3f 2d bd
       0.056618955 -0.25694975 0.13469446 -0.042297255
0003b0 9f 4f 36 bd 28 09 ad 3d 3f a7 c2 3b fc 36 e1 3d
       -0.044509526 0.08449012 0.0059403474 0.109968156
0003c0 a4 8a b7 3d b4 3d a2 bd 63 48 b2 3b a5 fe b7 ba
       0.089619905 -0.07921925 0.005440758 -0.0014037682
0003d0 5e bc 85 3d 5e 7a 9e bc 75 5c 0a be 3a 6e 17 3e
       0.06530069 -0.019345459 -0.13511832 0.14788142
0003e0 e1 eb eb bd 19 cf b8 3e b5 a1 b9 3c 0d 1d f3 3d
       -0.115196 0.36095503 0.022660116 0.11870775
0003f0 6f 8d 92 bd a5 eb 15 3d bb 01 83 3d 06 63 19 be
       -0.071558826 0.03660168 0.063968144 -0.1497918

lstm.weight_hh_l0 f4 [400, 100]
000000 5a 18 1d bc 2f 28 b7 bd 97 6a 66 3d 95 e7 72 3c
       -0.009588325 -0.08943211 0.056253996 0.014825721
000010 16 f5 bd bd 47 f4 60 3d 13 8e f6 bd 76 e0 0c bd
       -0.09275262 0.05492046 -0.12038817 -0.03439375
000020 1d 8c 1b 3c 04 77 b0 3a 51 d0 03 3e 33 bf 38 3c
       0.009493855 0.0013463204 0.12872435 0.011276054
000030 ba 5a e3 3d 65 6a 59 bd 98 39 3e 3d cb ee 49 3c
       0.11101289 -0.05307998 0.046441644 0.012324999
000040 93 54 9e 3d 46 e3 bf 3d f1 d9 22 3d d2 9b 23 3e
       0.07730975 0.09369521 0.039758626 0.1597741
000050 61 f9 a4 3c f1 05 4a 3d b5 bf 3d bd a2 ca 83 bd
       0.020138444 0.049322072 -0.046325404 -0.064351335
000060 83 6c 97 3c da 1d 2a bc 8e 2a 41 bc 81 e0 85 3d
       0.01848436 -0.010383094 -0.011789931 0.06536961
000070 b0 c4 01 be b5 f3 81 3d d2 eb 6e bc 55 7d 8f bd
       -0.12672687 0.063453116 -0.014582591 -0.07006327
000080 e8 98 63 3c c2 4e f5 bc 3d bc 98 3b e7 ad 34 be
       0.013891436 -0.029944781 0.0046611116 -0.17644463
000090 ac 30 cb bd af b5 ee bd cb 3c 96 3d 43 80 e0 3d
       -0.09921393 -0.11655747 0.07335814 0.10961964
0000a0 92 9d b5 bd d2 1e 06 3e 0c eb fd bd 3e 46 09 3e
       -0.08867945 0.13097695 -0.12398347 0.13405702
0000b0 25 1b c4 3c 1c 2b 8d bb fb 41 b8 3d cd 54 07 be
       0.023938725 -0.0043081176 0.0899696 -0.13215943
0000c0 9c f9 7f 3d 0e 60 57 bd e4 61 a4 bc 0b 2b 85 3c
       0.062493905 -0.05258184 -0.02006621 0.016255876
0000d0 8b 0d f3 3d 35 bc 2e 3d 44 6f a2 3d e1 79 8b 3d
       0.118678175 0.042659957 0.079313785 0.06810356
0000e0 a1 1e 7c bd 4b 4e c9 bd f1 aa 05 bd b6 cc 10 3e
       -0.061552648 -0.09829386 -0.032633726 0.14140591
0000f0 54 38 5c bd 75 fa d7 3c 5b b0 0d 3e 9a 87 98 bd
       -0.053764656 0.026364544 0.13836806 -0.07447739
000100 8a 99 95 bc 29 08 fa 3a 66 8e cc bd 8e d4 37 3e
       -0.01826169 0.0019075918 -0.09988098 0.17952177
000110 a0 d0 58 3e 8c 5f 21 bd 40 0c 27 bd a4 76 8f 3c
       0.21173334 -0.03939776 -0.040783167 0.017512627
000120 10 bf 9d 3d 6d 10 b4 bd 70 a2 c7 bd 10 41 73 bd
       0.07702458 -0.087921955 -0.09747779 -0.05938822
000130 c1 7d 0f be fa 78 8c bd 6f f7 8d bd 5b c8 91 3e
       -0.14012815 -0.06859012 -0.0693196 0.28473172
000140 1b bd 44 3d 01 1d f4 bd 66 e0 5c 3d fe ac 30 3c
       0.048031908 -0.119195946 0.05392494 0.010783432
000150 63 42 e8 3d 23 92 87 bd 97 fa 96 bc 02 59 a9 bd
       0.11340787 -0.0661967 -0.018430037 -0.0826893
000160 c8 36 4a 3d f8 86 ef 3b 57 e0 2e 3e 7e 4c bf 3d
       0.04936865 0.0073097907 0.17077766 0.093407616
000170 66 da db 3d 94 c7 f6 bd 9a f3 b7 bc 6d cf a7 bc
       0.107350156 -0.12049785 -0.022455025 -0.02048465
000180 18 a8 ed bd c7 52 35 3c be 5d 37 3d a6 e9 eb bd
       -0.11604327 0.011067099 0.044767134 -0.11519174
000190 b4 7c 39 3c 3d 23 cd 3d 49 a3 e0 3d 2f 5d 12 be
       0.011321235 0.10016487 0.10968644 -0.14293359
0001a0 a2 b3 d7 bc ef 86 53 3e a2 62 df bd 3d c5 f9 bc
       -0.026330773 0.20656942 -0.109074846 -0.030489558
0001b0 5a a0 cb bc ff 21 3c 3e 45 04 0c 3e ae 5c 92 bd
       -0.024856735 0.18372343 0.13673504 -0.071465835
0001c0 b0 e9 2d be 9e cc 20 3e a4 03 0d bd 5d 1b 0d 3e
       -0.16983676 0.15703055 -0.0344273 0.1377997
0001d0 e7 2c e5 bd 1b 87 2c bd 13 1c 3e bd 3a 9e 23 3e
       -0.11190205 -0.042121034 -0.046413492 0.15978327
0001e0 90 92 6d be 64 e4 1c be 07 8c fc 3d 6c 44 93 bd
       -0.2320044 -0.15321499 0.123313956 -0.07190785
0001f0 25 75 54 be a0 88 e2 3d 07 6b f9 3d aa 90 5b bc
       -0.20747812 0.110612154 0.12178617 -0.01340119
000200 be 80 ab bd 71 7e a8 3d e2 92 ce 3d 4b 21 0b be
       -0.08374165 0.08227242 0.100866094 -0.13586919
000210 16 e2 70 be 6a 5c 56 3e 08 e4 a8 3d 52 b6 6d bd
       -0.23523745 0.2093369 0.082466185 -0.058035202
000220 c8 51 6c bd 78 d6 eb bd 39 d6 69 be d8 ce 67 3d
       -0.05769518 -0.11515516 -0.22835626 0.056593746
000230 16 c9 a9 bd 5b f4 f3 3c 00 84 aa 3c 6b 43 a5 3d
       -0.08290307 0.029779604 0.020814896 0.080694996
000240 ae 90 80 bd 7b c9 16 3e c6 d1 83 3d 2b 69 a0 bd
       -0.062775955 0.14725296 0.064364955 -0.07832559
000250 d1 dd 6d 3c e2 cc bc 3c 1d 40 70 3c 98 a2 8e be
       0.014518217 0.023046914 0.014663723 -0.27858424
000260 2c ad 9c 3d db dd 77 be 1c 5a f9 3d e8 ae ea 3d
       0.076502174 -0.24205725 0.1217539 0.11459142
000270 f4 6d 13 be 82 66 47 bd 9d 32 10 bd 0f 76 07 3e
       -0.14397413 -0.048681743 -0.03520452 0.1322863
000280 e7 58 88 bc 62 2f 68 be 37 c9 3c bc 00 76 de bd
       -0.016643954 -0.22674325 -0.011522583 -0.108623505
000290 f0 38 6d be a1 6a 01 be 7d 2c 0d be 49 c0 71 3d
       -0.23166251 -0.12638332 -0.13786502 0.059021268
0002a0 0c 35 a1 3e 97 62 69 3e ba ad 34 3e c4 a1 46 3e
       0.31485784 0.22791515 0.17644396 0.19397646
0002b0 2e 4d e8 bc d5 c7 5c be 95 9d 29 be 27 cb 77 3d
       -0.028357115 -0.21560605 -0.16564019 0.060496476
0002c0 29 47 ad bd 95 22 a0 3d cb d0 0a be 15 28 bf 3e
       -0.08460838 0.07819096 -0.1355621 0.37335268
0002d0 cf de 12 be fd db e0 bd 7c 65 a3 bd de 84 8d bc
       -0.14342807 -0.109794594 -0.07978341 -0.01727527
0002e0 53 93 fd 3c 52 83 3e bc 5e b2 d1 bc e9 ed 07 be
       0.030954039 -0.011627989 -0.025597747 -0.1327435
0002f0 3c 11 1a 3e da 4b d9 bd 1a df a5 3c 47 f8 4e bc
       0.15045637 -0.10610171 0.020247985 -0.012632436
000300 ff 5f 2d 3d 86 e3 0a be 40 35 6c bc de ae d4 bd
       0.042327877 -0.13563356 -0.014416993 -0.10384916
000310 e7 45 77 3a 14 77 91 be 9b b9 e7 3d e7 3f af bd
       0.00094327185 -0.28411162 0.11314698 -0.0855711
000320 54 14 4f be 75 1e 1e be 51 44 32 be 12 af ce 3d
       -0.20222598 -0.15441306 -0.17408873 0.10091986
000330 0e 36 07 bd 33 e1 05 be 54 b2 34 be 35 2f 34 be
       -0.033010535 -0.13074188 -0.17646152 -0.17596133
000340 2a a9 88 bb 86 ad 7c bc b4 58 46 3d a0 b0 8f 3d
       -0.0041705566 -0.015422231 0.048424438 0.070161104
000350 e4 08 20 3c 85 bd 51 3d 38 62 3f 3c d4 98 91 bd
       0.009767745 0.05120613 0.011681132 -0.07109228
000360 07 29 8e 3a 7c 7b 22 3e 25 0f 05 3d be 97 7d ba
       0.0010845967 0.15867418 0.032485146 -0.00096737954
000370 4b 85 3b bd 02 ae 32 bd eb 67 d4 bd 4a eb 52 3c
       -0.045781415 -0.043622978 -0.10371383 0.01287348
000380 d1 82 01 be 98 53 17 bd b9 3d 99 bb ca 10 04 3d
       -0.12647559 -0.036944956 -0.0046765474 0.032242574
000390 b8 dd e1 bd 54 37 e9 bd 10 8b cf 3c d9 c2 0f bd
       -0.110286176 -0.11387506 0.025334865 -0.03509793
0003a0 4e 7b ac 3d 25 57 a6 bc 40 67 09 3d 74 ea 67 bc
       0.08421956 -0.020305226 0.033545732 -0.014155019
0003b0 21 a2 8d bd 86 90 15 be d2 07 1a bd fa 8e 68 3c
       -0.06915689 -0.14605913 -0.037605114 0.0141942445
0003c0 90 e2 9e 3d 10 3f b3 bc ea 57 ba bd ae 5a ce 3d
       0.07758057 -0.021880656 -0.090987995 0.100758895
0003d0 05 d1 b8 3d c0 84 cb 3c ce 1c 06 3d cb d2 de bc
       0.09024242 0.024843574 0.032742314 -0.027200123
0003e0 07 f8 2c bd 74 17 0d 3e 45 6e 8f bd ed b7 45 3e
       -0.042228725 0.13778478 -0.07003454 0.19308443
0003f0 8f 7a 06 3e d0 3f a6 3d b2 d1 23 bd 82 6c 50 3e
       0.1313269 0.0811764 -0.039994903 0.20353892

lstm.bias_ih_l0 f4 [400]
000000 35 44 02 3d 9d e5 c5 bd be 62 2c be b7 40 a5 bd
       0.03180333 -0.09662936 -0.16834542 -0.08068984
000010 3d 31 c0 3c 47 24 8c bd 12 8c 81 3d 20 2b a1 bd
       0.023460979 -0.06842857 0.063255444 -0.078695536
000020 47 77 65 3d 30 67 46 3b 0c c3 0c 3e 88 81 44 bd
       0.056021955 0.0030273907 0.1374628 -0.047975093
000030 f1 b0 0e be 1c 85 f8 bc 72 c0 8b 3b 4e f6 68 3d
       -0.13934685 -0.030336909 0.0042648846 0.05687552
000040 12 94 53 bc 70 c1 6f 3b 4c 12 5d 3d 8c 3b bc bd
       -0.012913721 0.0036583804 0.053972527 -0.09191045
000050 30 de 66 bd 52 98 7f bd a1 11 cf 3d 3c e6 4f 3c
       -0.05636424 -0.062401123 0.10110784 0.0126891695
000060 8a 80 db 3c a0 b9 13 bd 5b 3e 62 3e f2 7f 80 3c
       0.02679469 -0.036065698 0.22094099 0.01568601
000070 93 cc 15 bd aa ef ac bd bd bf 13 bd db 97 c1 3d
       -0.03657205 -0.0844415 -0.036071528 0.09452792
000080 da 59 33 3c f8 38 a0 3d b4 a4 03 bd 13 22 56 3d
       0.010946715 0.07823366 -0.032139495 0.05227859
000090 b5 db a1 bd c5 47 d4 bc bb 75 b8 bc 1f 60 ae 3d
       -0.07903234 -0.025913129 -0.022517076 0.085144274
0000a0 f4 6e b8 bc 31 a4 b8 3c 73 22 9d bd f5 36 e5 3c
       -0.022513844 0.02253923 -0.07672586 0.027980307
0000b0 2f fd 43 bd e2 34 1e 3d ff ac 5b 3d 9d 8b 89 bd
       -0.047848877 0.03862465 0.05363178 -0.06716082
0000c0 4b 17 0a bd 70 59 04 3e 95 d4 dd bc 8e 0a 26 3d
       -0.03371362 0.12924743 -0.027078906 0.04053741
0000d0 b6 ef 45 3d 2f 05 83 bd 37 41 70 bd 65 88 15 3d
       0.04832431 -0.06397473 -0.058655944 0.03650703
0000e0 93 a2 2f 3d c4 bf 8c bd c8 c4 aa bd c9 d3 a6 bd
       0.042879652 -0.06872514 -0.08338314 -0.081458636
0000f0 ca bd 36 3d d8 78 12 3e 76 e7 6d 3e fc 27 ad 3d
       0.04461459 0.1430391 0.23232827 0.08454892
000100 42 64 90 3d fb 4c 56 3d 45 b4 fa 3c 3e 8c ac 3b
       0.07050373 0.052319508 0.030603537 0.0052657416
000110 ef 62 b8 3d be 75 d1 3c 11 b9 87 bc be a5 7b 3c
       0.09003245 0.02556884 -0.016567739 0.01535934
000120 b3 b7 e0 3d 85 db 65 bd 3c 59 a9 bd 69 e9 98 bc
       0.10972538 -0.056117553 -0.08268973 -0.018665986
000130 07 1c a4 bc dd 22 b1 3d 5f 2a 9e bd f0 e4 79 3e
       -0.020032896 0.08649228 -0.077229254 0.24403739
000140 e6 d6 9e 3d 63 48 9e bc 67 d3 08 bd 9e c5 6b bc
       0.077558324 -0.019321626 -0.033404734 -0.014390377
000150 60 9b e7 3c c3 37 64 3b 8d 75 a8 3d aa 39 53 3d
       0.02827233 0.0034823276 0.08225546 0.051568665
000160 76 c6 99 bd 98 7f f6 3c 7b 79 5a 3c ee a3 6d 3d
       -0.075085565 0.030090138 0.013334627 0.058017664
000170 3f 2e 72 bd 12 8f 67 bd d8 23 38 3b ce 83 a0 bd
       -0.059126135 -0.056532927 0.0028097536 -0.0783764
000180 55 23 ae 3c 1a a6 97 bc 6b 73 02 be f6 1a 73 3d
       0.021257082 -0.01851182 -0.12739341 0.059351884
000190 40 35 92 bd f3 77 f7 3b f1 8c 81 3b 90 db 00 3d
       -0.07139063 0.007552141 0.003953569 0.03145939
0001a0 1e d7 bb 3d 6d c2 0e 3e 3e 3a 5e bd 91 d6 b1 bd
       0.0917189 0.13941355 -0.054254763 -0.086835034
0001b0 ce e8 9c bd 91 d2 14 bd 9c 35 18 3f 75 9a 9b bc
       -0.076615915 -0.036333624 0.594568 -0.01899455
0001c0 45 be 66 bc a8 6f 03 3e ef 09 68 bd 8b 96 c2 3d
       -0.01408345 0.12835562 -0.0566501 0.0950137
0001d0 e0 cd 87 3c 41 e2 c0 bc 94 d9 af 3d 19 11 c1 bc
       0.016577661 -0.023545386 0.085864216 -0.023567723
0001e0 e2 c7 74 3d 9b c7 b6 3b 51 22 be 3e 64 92 94 3d
       0.059760936 0.005577994 0.37135556 0.07254484
0001f0 9f 13 07 3d 74 0b a6 bc 3f 82 5b be 52 5f 1a 3d
       0.032977697 -0.020269133 -0.21436404 0.03768856
000200 df b3 4c 3d 70 db 80 bd dd c0 22 bd 79 3d a0 bb
       0.049976226 -0.062918544 -0.03973471 -0.0048901406
000210 a7 84 dc 3d cd b1 62 3d c3 2a 04 3e 98 40 03 3d
       0.10767489 0.055345345 0.12906937 0.032044023
000220 96 fe 1f bd 71 83 31 bd 16 20 39 bd b9 41 cd 3d
       -0.03906115 -0.043338243 -0.045196615 0.10022301
000230 c8 e9 ea bc af dd c6 bc e8 41 c0 bd 44 aa e7 3d
       -0.028675929 -0.024275629 -0.093875706 0.113117725
000240 cc 2c 8b 3c fd a3 66 bd 1f f3 e0 3d 43 5b 29 be
       0.016989134 -0.056308735 0.10983872 -0.1653872
000250 2c ec 0d 3d 4d cf 18 bd 1f 7c e1 3c 97 64 00 3e
       0.03464906 -0.037307072 0.027525006 0.12538372
000260 76 4f 0d 3d 4a a4 8b bb 01 a6 de bc 5c 29 b3 bd
       0.034499608 -0.004261528 -0.027178766 -0.08748123
000270 8d 8e c0 3d c3 db 21 bd 3e 2b d5 bc 6e 03 b7 3d
       0.094021894 -0.03951622 -0.026021596 0.08936201
000280 af eb 30 3d 41 30 0b bd 5c 81 21 3c de e2 80 3d
       0.043193515 -0.033981565 0.009857502 0.062932715
000290 3b 35 0c bd 66 89 b8 bd a0 b5 bf bd 9c 05 57 bd
       -0.034230452 -0.09010582 -0.09360814 -0.052495584
0002a0 26 24 f8 bb a3 46 b0 bd 0f e5 1e 3d 79 80 dd 3c
       -0.0075726686 -0.08607223 0.038792666 0.0270388
0002b0 a9 a2 ad bd 38 6a 30 bd a0 e9 4e bd 74 c9 b0 3b
       -0.084782906 -0.043070048 -0.05051577 0.005395109
0002c0 06 8d f7 3d db 08 b0 bd 62 7b 55 bd f9 8c 01 3f
       0.12087445 -0.08595439 -0.05211962 0.5060573
0002d0 28 93 b9 3d cd 89 0d 3b 9c ee 34 bd 3a 4b bf bd
       0.09061271 0.0021597028 -0.044172868 -0.0934052
0002e0 17 7d bd bd 33 4f 16 bd ca af 7e 3d e2 db ec bd
       -0.092523746 -0.036696624 0.062179364 -0.11565377
0002f0 a3 3c de 3d 25 62 22 bb 5c 2c 54 bd 07 03 06 3d
       0.10851409 -0.0024777737 -0.051800117 0.03271773
000300 03 04 60 3b 77 c8 0c bb 1c 85 a4 bd 9c c8 9b bc
       0.0034182079 -0.002148179 -0.08033201 -0.019016556
000310 2a 68 0b be da 42 11 3d aa e0 71 3c 3c a5 71 bd
       -0.13613954 0.035464145 0.014763037 -0.05899547
000320 3d a3 e3 3d 85 f8 b2 3d 19 14 39 bd 62 21 a7 3d
       0.111151196 0.087388076 -0.045185182 0.08160664
000330 c3 10 bc 3d 8b cc 65 bd 94 6c ce 3d c3 b7 03 3e
       0.091828845 -0.05610327 0.100793034 0.12863068
000340 b3 b4 fd 3d 32 6a 24 3d e4 e6 d7 3d c2 3f df 3d
       0.12387981 0.04014034 0.10542086 0.10900833
000350 2a d5 c7 bc 6d 53 42 bd df d6 6d bd 2f 59 88 bd
       -0.024393637 -0.047442842 -0.058066245 -0.066576354
000360 9a 6a 03 bd ab 23 4a bc 31 7b 11 3e 1d 2b 19 be
       -0.032084085 -0.0123376055 0.1420715 -0.14957853
000370 b6 97 08 3e 5b e0 4d 3d 9e 51 dc 3d 13 cd ed 3d
       0.13339123 0.05026279 0.10757755 0.116113804
000380 5e da 21 3e 48 c4 39 be f4 ac c0 bd 13 76 fa bd
       0.15805957 -0.18141282 -0.09407988 -0.12229552
000390 fa 14 13 3e 0b 7f 56 bd f0 5b 13 be 04 31 97 3d
       0.1436347 -0.05236725 -0.1439054 0.07382396
0003a0 ac 0f df bc 6b 9b 6d 3d fb 0b ec bd 3e 3a 6d bc
       -0.027229153 0.058009546 -0.115257226 -0.014479218
0003b0 1a c3 1e bc ae ab 05 bd cc b4 00 bb 5e bd 2c bd
       -0.0096900705 -0.03263443 -0.0019639013 -0.042172782
0003c0 c1 c7 e9 3d 50 8a 33 bb 77 3c d3 3d 31 c4 26 bd
       0.11415053 -0.0027395673 0.10314267 -0.040714446
0003d0 df 6a d6 3d c6 30 fa 3a 27 e4 cb bd 12 1b d9 3d
       0.10469603 0.0019088022 -0.09955626 0.106008664
0003e0 06 23 8f 3d 7b a1 86 bd fd 09 cf bd 3d 8a f6 3c
       0.06989102 -0.06573769 -0.10109327 0.030095214
0003f0 f6 bd e0 bd c5 26 77 3d 6c 44 c2 bd f9 81 cc bc
       -0.10973732 0.060339708 -0.09485707 -0.02496432

lstm.bias_hh_l0 f4 [400]
000000 0f 12 0b bd bf d4 e5 bd e8 d5 20 be 65 a8 3f 3d
       -0.03395277 -0.11222219 -0.15706599 0.046791453
000010 5b e0 7c 3d 6f 79 0e bd 2b e7 87 bd 65 8c a5 3d
       0.0617374 -0.034783777 -0.06635889 0.08083419
000020 07 2a 65 3d 12 49 23 bd 1b 13 cb 3d f6 3d ef 3d
       0.055948284 -0.039864607 0.099157535 0.1168174
000030 1e d4 ef bd f3 25 10 3d 78 9f d5 bd 00 61 14 3d
       -0.1171038 0.03519244 -0.10430807 0.03622532
000040 be 51 6e ba 77 fe b2 bc ea 59 b6 3d 95 e7 78 bd
       -0.000909116 -0.021849854 0.089038685 -0.06076773
000050 7d 54 42 3c ac 6c 6e ba 4d d7 5f 3e b9 4c 72 3d
       0.011860964 -0.0009095173 0.21859474 0.0591552
000060 5b 37 ab bd 16 ca 80 3d 29 4a 60 3e d9 34 0a 3e
       -0.083601676 0.06288545 0.2190329 0.13496722
000070 91 3d 4f bd 93 43 7f bd e7 26 89 bd 5d c6 a9 3d
       -0.050595824 -0.062320303 -0.06696873 0.08289788
000080 5a 4b 8f 3a 1c 67 c8 3d f8 25 45 3d 29 ca 94 3c
       0.0010932491 0.097852916 0.048131913 0.018162804
000090 e7 44 16 be 59 cc fd 3c 6f 9f 8a bd 8c 20 e1 bc
       -0.14674722 0.03098123 -0.06768691 -0.02748134
0000a0 ec 9d c6 3c 68 4f 8e bd bb 18 95 bd f3 c2 af 3c
       0.024245225 -0.06948739 -0.072801076 0.021455264
0000b0 46 e9 6c bd 7d 66 e5 bb 19 8a 57 bd 25 6e 9f 3c
       -0.057839654 -0.007000743 -0.052621935 0.0194617
0000c0 ac 98 c7 bd b0 26 0d 3e 24 a7 72 bd 43 ef a9 3d
       -0.09745917 0.1378429 -0.05924143 0.08297589
0000d0 16 7c 45 bd 3d 29 ad 3d 9f 19 09 bd ce 7e 53 3d
       -0.04821404 0.08455131 -0.0334717 0.051634602
0000e0 3f 61 2c bd 01 a1 59 3c 12 5d 0b be 4d 1a e1 3c
       -0.04208493 0.013283015 -0.13609722 0.027478362
0000f0 1f 11 c8 bd be ac dd 3d 89 3f 85 3e 32 9d aa 3c
       -0.097688906 0.108239636 0.26025036 0.02082691
000100 06 ec a9 3d eb c8 e0 bd da ff 57 3d 92 1c 65 3d
       0.08296971 -0.10975822 0.052734233 0.05593545
000110 70 fb 37 3e 80 1e c0 bb 61 aa f1 3d d3 b3 58 3d
       0.1796701 -0.005863011 0.11800075 0.05290587
000120 7b e7 d6 3d e7 55 01 3d 76 69 a1 bd 7e f0 90 3d
       0.1049337 0.031576063 -0.07881443 0.0707712
000130 97 26 8a 3d 24 ae 04 3c e6 5e 88 bd bf f0 92 3e
       0.06745642 0.008098159 -0.066587254 0.286993
000140 8c 41 a0 bd 10 21 fa bd 74 92 9d bd ce 4f 8b bc
       -0.07825002 -0.122133374 -0.07693949 -0.017005827
000150 9a d8 d4 3d ba fa f0 bd 7f 1a af 3d 58 2e c0 bd
       0.10392876 -0.11766572 0.085499756 -0.09383839
000160 6a 9b a7 3d bf c5 40 3d f3 3d 02 3d 0e 94 28 bd
       0.0818394 0.047063585 0.03179736 -0.04115682
000170 92 3d 0a bd 92 4d 35 ba 32 14 dd 39 d9 11 dd bc
       -0.033750124 -0.0006916161 0.00042167451 -0.02698605
000180 59 9f d6 bd 0d ef 13 3d e0 70 2e bd a2 b4 7a 3d
       -0.10479612 0.03611665 -0.042588115 0.06120742
000190 8d 96 5b bd 6e ec e7 bd a3 0b a5 3d d1 8c da bc
       -0.053610373 -0.11324392 0.0805886 -0.026678475
0001a0 9c 1a 9b 3d b7 df 05 3e 39 72 8c 3c 6c ad a8 3c
       0.07573435 0.13073622 0.01714431 0.020590506
0001b0 38 3c cb 3d 5c 35 9d bd 2e bc 08 3f cd 01 8d bc
       0.09923595 -0.07676193 0.5341214 -0.017212773
0001c0 8e 69 a5 3d f7 4c f3 3d 6b 0d de 3b e1 33 d0 3d
       0.080767736 0.11879914 0.006776502 0.10166145
0001d0 7e ce 85 3d 71 2e 7f 3d 82 03 19 3d f9 56 e0 bc
       0.06533526 0.06230015 0.03735686 -0.027385222
0001e0 2e c1 34 3d 4f 10 08 bd db 95 cd 3e 8f 2c d4 bc
       0.044129543 -0.033218678 0.40153393 -0.025900153
0001f0 b3 58 e0 bd bf aa af 3d 2e 09 a0 bd fa a5 00 3d
       -0.10954418 0.08577489 -0.07814251 0.031408288
000200 1a 79 d4 bc ea 3b fb 3d cf 33 0b 3e 11 b3 cf bb
       -0.025936652 0.12267287 0.13593982 -0.006338485
000210 61 56 7b bb 08 3d 85 bd d6 5d 3c 3d d4 81 32 bd
       -0.0038351046 -0.065057814 0.045987926 -0.043580845
000220 1a 50 50 bc ae da 58 3b de 16 21 bd a4 8a 65 bd
       -0.01271441 0.0033089328 -0.03932845 -0.05604042
000230 16 4a e3 3c 3b 1a 0d be c4 ed c9 bd 3f 9c f1 3d
       0.027745288 -0.13779537 -0.09859803 0.1179738
000240 41 97 ed bc 93 b3 37 bd 8b e8 4f 3c 2f 4f ab bd
       -0.029002788 -0.04484899 0.01268972 -0.083647124
000250 a2 19 b3 3c 05 88 cc bc 41 d4 f3 3d d5 3b 65 3c
       0.021862809 -0.024967203 0.119057186 0.013991316
000260 91 d7 93 3d ed f6 e7 3d db cb e9 bc 7c 86 6a bd
       0.072188504 0.11326394 -0.028539589 -0.05725716
000270 5f 40 0d 3e dc 8a 65 3c 18 3c 15 bb 5a c1 db bc
       0.13794087 0.014010157 -0.0022771414 -0.026825596
000280 64 70 ae bd 93 07 56 bd 39 1f 73 3d 5b b8 a6 bd
       -0.085175306 -0.052253317 0.059355948 -0.08140632
000290 27 c7 c6 bc 30 42 08 3d 9f 1e 91 3c 2e 57 3b 3c
       -0.024264885 0.033266246 0.017714797 0.0114343595
0002a0 6c d8 b5 3d 23 ff b0 3d b2 8b 59 3b 45 75 41 3d
       0.0887917 0.086424135 0.0033194837 0.047230978
0002b0 af a2 11 3c a4 0c c3 bc af 9b 27 bc e7 ec 18 bd
       0.008888884 -0.023809738 -0.010229989 -0.037335303
0002c0 3a 57 e5 3d 8d be 2b bd d7 e9 b0 3c 8b 81 e2 3e
       0.11198278 -0.04192977 0.021595879 0.44239458
0002d0 33 64 e1 3d 89 3c cc bd 09 29 08 3d 1d 01 06 3d
       0.110054396 -0.09972484 0.03324226 0.032715905
0002e0 09 06 6a bc c9 49 e9 bd 48 fa c4 3c c4 d5 f3 bd
       -0.014283665 -0.113910265 0.024045125 -0.11906007
0002f0 e3 3c ca bc 4e e5 fe bc ef e8 e5 bd a3 1d 16 3d
       -0.024687236 -0.0311152 -0.11226069 0.036649358
000300 e7 eb e9 bc cd c0 70 bd 11 09 1e be e7 83 44 bd
       -0.02855487 -0.05877762 -0.15433146 -0.047977354
000310 0a 53 08 be e1 70 7a 3d 8a 89 90 bd 0f b8 87 bc
       -0.13312927 0.061142806 -0.070574835 -0.016567258
000320 d7 03 e7 3d 31 18 23 bc 3e e6 38 3c 93 88 68 3d
       0.11280029 -0.009954498 0.011285363 0.056770872
000330 d9 8c 11 3e f6 77 92 bd 4b dd 8a 3d 66 35 85 3d
       0.14213885 -0.07151787 0.067804895 0.065043256
000340 23 31 f1 3c 95 0d 06 be c3 7c 80 3d 28 dd 8a 3d
       0.029442376 -0.13091119 0.062737964 0.067804635
000350 b8 9d 8d 3c 91 fa ac bd 06 a8 c4 bc ae ae bb bd
       0.01728712 -0.08446229 -0.024005901 -0.09164177
000360 26 01 53 bc 03 50 29 3c 96 61 8b 3d a9 1c 92 bc
       -0.012878692 0.010334018 0.068057224 -0.017835932
000370 97 44 bd bc 55 15 69 3d 47 79 1f bd a5 1f 2e 3d
       -0.023103995 0.05690511 -0.03893402 0.042510647
000380 de 24 7a 3d c9 2e c7 bd 25 cf 30 be 4e d5 21 be
       0.061070316 -0.097257204 -0.1726652 -0.15804026
000390 e5 95 8d 3d 66 f2 ac bd af 7d 0c 3d f4 ce f4 3d
       0.06913356 -0.08444671 0.03429955 0.11953536
0003a0 e7 1f f9 3d 5c 47 50 bc 7d af ed bd 43 e7 e5 3d
       0.12164288 -0.012712326 -0.11605737 0.1122575
0003b0 b1 1d 9b 3c f0 fa 77 3d 64 59 a1 bb 25 c0 0e be
       0.018935056 0.060542047 -0.0049239863 -0.13940485
0003c0 fb af fd 3d 67 d7 df bd 8e 35 66 3d 68 e0 0d be
       0.12387081 -0.109297566 0.056203417 -0.13855135
0003d0 f2 97 4d bc f5 3c f2 bd d7 aa d8 bc 09 f6 1b bc
       -0.012548434 -0.11828033 -0.02644865 -0.009519109
0003e0 71 62 91 3b da f8 3a bd 21 d3 80 bd 48 02 bd 3b
       0.004436784 -0.04564748 -0.0629027 0.005768094
0003f0 f5 19 ef bc ab a9 83 3d 3f 6e 88 bd 6e b9 23 be
       -0.029187182 0.06428846 -0.06661653 -0.15988705

fc1.weight f4 [40, 100]
000000 e3 b3 d4 bb c0 f1 24 be 75 aa 6f 3d 88 35 db bc
       -0.0064911707 -0.16107845 0.05851217 -0.026758924
000010 9c d1 f7 b8 d2 ef b2 bc a5 ce a3 3d dc 8c 57 be
       -0.000118169206 -0.02184287 0.07998399 -0.21049827
000020 6d df 1a be 44 89 67 3d 37 6b 45 be 67 e4 09 3d
       -0.15124293 0.05652739 -0.1927918 0.033665087
000030 d8 9d 19 bc 3c 8c 48 3d a3 36 1d 3e 28 b3 ca 3d
       -0.009376012 0.048961863 0.15352874 0.098974526
000040 b8 1d c5 bd 1c b0 4d bd df 83 fc bd 30 95 19 3e
       -0.09624809 -0.05021678 -0.1232984 0.14998317
000050 42 13 da 3c 4a d1 c6 3c 8e cb ee 3c c0 7a 41 bd
       0.026620511 0.024269719 0.029149797 -0.047236204
000060 25 f7 30 be 28 27 dd bc 8b 53 12 3e 68 75 17 3e
       -0.17281778 -0.02699621 0.14289682 0.1479088
000070 dc 5c 08 be 30 1e fe 3d 87 86 9c 3d e6 c0 23 bc
       -0.13316673 0.124081016 0.076428466 -0.009994721
000080 d2 9a c7 3c d5 ee 17 bd 93 b9 0b 3e bb 72 9b bc
       0.024365816 -0.037093002 0.1364501 -0.018975606
000090 d4 66 c1 bd f4 46 a2 3d 6e 8a d7 bd 5e 7e 56 3b
       -0.09443441 0.079236895 -0.1052445 0.003272913
0000a0 f0 84 94 bd 45 a1 ea 3d d7 15 65 bd f5 1e d8 bd
       -0.07251918 0.11456541 -0.05592903 -0.105527796
0000b0 e7 f1 c5 3b d2 15 43 3d f3 df 48 bd e6 04 dc bd
       0.0060408 0.04762823 -0.0490417 -0.10743122
0000c0 ee c6 f8 3c c3 82 73 3d 9e 64 96 bc 5d 2c bf bd
       0.030368295 0.059450876 -0.018358525 -0.093346335
0000d0 41 ce 38 3d 15 09 fa 3c 0c 77 73 3d 30 cf ea 3d
       0.045118574 0.030521909 0.059439704 0.11465299
0000e0 17 24 2e 3d 7f 29 01 be 45 3c 44 be ce 16 93 bc
       0.042514887 -0.12613486 -0.19163616 -0.01795521
0000f0 c1 ad ac 3d b5 b8 c1 bd 91 99 4a 3d ca 22 d2 bd
       0.084315784 -0.09459058 0.04946286 -0.10260542
000100 5c b5 d2 3c 87 84 85 bd 9c 9b 62 bd e6 59 b4 bd
       0.025721245 -0.06519418 -0.055324182 -0.08806209
000110 d8 ad c5 3d c5 d4 e9 3d 74 0f 07 3e 74 da fa 3d
       0.09652299 0.11417536 0.13189489 0.12248698
000120 f0 33 61 3a f1 e0 e6 bc 90 1d c5 bb bd 32 13 3e
       0.0008590808 -0.028183432 -0.006015487 0.14374824
000130 8f f4 de bd 67 85 a2 3d b5 31 88 bd 24 ac 41 3d
       -0.108864896 0.07935601 -0.06650106 0.047283307
000140 22 ff 3b 3d d6 17 2c 3c f7 3c 4d 3e 08 a0 c5 3c
       0.04589761 0.01050373 0.20042787 0.02412416
000150 4e 6e bf bd 31 9a 9a bd b8 00 12 be 42 9e ad bd
       -0.09347211 -0.07548941 -0.14258087 -0.08477451
000160 ae e6 15 bd 40 31 c1 3c bc 1c 79 3e 8c d2 c3 3d
       -0.036596946 0.023583055 0.24327368 0.09561643
000170 08 2a 98 3d 82 f4 34 be f2 9a 06 be e1 0d 6f bd
       0.07429892 -0.17671397 -0.13145044 -0.058362845
000180 95 47 b1 bd 5f 2c 28 3d 33 0b 8c ba 19 3c 18 bd
       -0.08656231 0.04105794 -0.001068449 -0.03716669
000190 85 8f 1b 3e 4c 54 de bc 2d 74 cb 3b ec 58 ff 3c
       0.15191467 -0.027139805 0.0062089176 0.031170331
0001a0 2a 1a e2 bc 0b 87 cf bd 36 7d 95 3d 04 4a 0a bc
       -0.027600367 -0.10133179 0.07299273 -0.008440498
0001b0 0e cc 16 bc 39 a4 80 3d 2a 6b e5 3d f7 6f 34 bd
       -0.009203924 0.06281323 0.112020805 -0.04405209
0001c0 c7 5a b1 3d ec f7 9e bd 37 e8 93 bc c6 54 03 be
       0.086598925 -0.07762131 -0.018055065 -0.12825307
0001d0 5a 3c fc 3c e9 5b 48 3d 1e 70 c7 3c 00 bd f7 3b
       0.030790497 0.048915777 0.024345454 0.0075603724
0001e0 7a 56 62 3d 5a e2 41 3d a3 51 23 3e 49 6c cc 3c
       0.05525825 0.047335006 0.1594911 0.024953978
0001f0 ee cd e0 bb 26 57 28 bd f5 7c 07 bd 11 d7 36 3d
       -0.006860486 -0.041098736 -0.033078153 0.044638697
000200 80 ba d8 3d 76 ca b8 bd d3 45 d8 bd e8 e4 e1 3d
       0.10582447 -0.09022991 -0.10560193 0.110299885
000210 df 26 a2 bb d5 90 3c 3e 8e e6 51 bc 28 d0 87 3d
       -0.0049484815 0.18414624 -0.012811316 0.066314995
000220 30 cb 96 3d 22 ee 92 3d 5b 82 70 bd 8a bf d8 bc
       0.07362974 0.071743265 -0.058718067 -0.02645852
000230 46 2b 8c 3d f8 92 b0 3d d7 a6 b8 3d e0 d7 e8 bb
       0.06844191 0.08621782 0.09016197 -0.0071058124
000240 e4 41 7f bb 6a c9 92 bd 0f 2e f4 bc fc 60 82 bd
       -0.0038949186 -0.07167323 -0.029807119 -0.063661546
000250 b0 19 b2 3c ef 9b 15 bd 9c b0 6b bd 5b fd f2 bd
       0.021740764 -0.036525663 -0.057541475 -0.1186473
000260 66 b9 d0 bd 75 36 2f 3d 2a 71 cc bc 28 f3 23 3d
       -0.10191612 0.042776544 -0.024956305 0.040026814
000270 82 7f 77 bd 27 b8 0c 3e 70 62 c7 ba d7 ba 28 3d
       -0.060424335 0.13742124 -0.0015211832 0.04119381
000280 73 a0 47 bb 8a 46 11 3d ca 08 1e 3e 80 15 81 3c
       -0.0030460625 0.035467662 0.1543304 0.015757322
000290 28 c9 b4 bd cd 98 d7 bc 26 e6 a3 bd fa 7a 1b be
       -0.0882743 -0.026317978 -0.08002882 -0.1518363
0002a0 69 86 6d 3e 69 90 53 3d 5b 71 bc 3d 2c d8 05 bd
       0.23195805 0.051651392 0.09201308 -0.03267686
0002b0 5b 52 7b bc e4 48 5d bc 77 3a ab 3d 4a a3 58 3d
       -0.015339459 -0.013506148 0.08360761 0.0528901
0002c0 65 3f 65 3c 63 99 ee bd 1e 7b c4 ba d9 e4 9a 3d
       0.013992165 -0.1165035 -0.0014990305 0.075631805
0002d0 fa 44 d6 bc 3b cb 7b bd 3c 8a 93 bc 75 2d 29 bd
       -0.026155937 -0.061473113 -0.018010251 -0.041303117
0002e0 8e b9 39 be 34 dc 56 bd d7 9a c1 3b 84 9d 48 3d
       -0.1813719 -0.052456096 0.005908351 0.048978344
0002f0 51 95 a4 bd d4 09 00 be 3d a1 a6 bd 56 fc 0a 3d
       -0.08036292 -0.12503749 -0.081362225 0.033932053
000300 98 9d ec bd f0 34 5e bd 54 4e c2 3c a0 fd 87 3d
       -0.11553496 -0.054249704 0.02371899 0.06640172
000310 1a 1c 87 bd c0 ed cd bd 20 e3 0e 3d d2 52 06 bd
       -0.06597157 -0.10055113 0.034884572 -0.032793827
000320 de bf 12 be 69 ed 8a bd 96 8f 0d 3e 82 3e 81 3c
       -0.14331004 -0.06783564 0.13824305 0.015776876
000330 15 bc 4a bd de be 88 3d f1 98 cb bd af 39 12 be
       -0.049495775 0.0667703 -0.09941281 -0.14279817
000340 34 6e c5 bd 2a 15 62 3d 60 11 04 3d 3a 5a ba bd
       -0.0964016 0.055195965 0.032243133 -0.090992406
000350 19 4a 84 bc 6f 4c b8 3d 99 7e 82 3d 7c f5 ae 3c
       -0.016148614 0.089989536 0.06371803 0.02135729
000360 6e 25 b6 bd cf 6f dd 3c a5 a5 97 bc 2c c4 e8 bd
       -0.08893858 0.027030854 -0.018511603 -0.11365542
000370 08 0a ab bd 85 5c a1 bd 52 ee 5a bd 77 ff 53 bd
       -0.08351523 -0.07878975 -0.053449936 -0.051757302
000380 84 3e 97 3b 9c 2e e5 3d 96 ac d8 bd cb 4c c4 3d
       0.0046156067 0.11190531 -0.10579793 0.095849596
000390 49 07 7b bb e1 3b 5e 3b b2 d4 69 3d ef c7 64 bd
       -0.0038303903 0.0033910202 0.057087608 -0.055854734
0003a0 56 c0 94 bd 1d 6c 92 bd e1 f8 97 3d 65 4f 81 3c
       -0.07263248 -0.07149527 0.07420517 0.015784929
0003b0 8a 5a 13 3d 32 85 a1 3d f1 e8 77 bd 0f 61 e9 3c
       0.035975017 0.07886733 -0.060524885 0.028488664
0003c0 a5 60 ec bd 8b ea 51 3d a0 12 b7 bd 93 a5 02 3e
       -0.11541871 0.05124907 -0.08939099 0.12758474
0003d0 6b 3d b6 3c 66 92 61 3d 55 3d 0a bc 7c 31 02 3d
       0.022246083 0.055071257 -0.008437474 0.031785473
0003e0 56 cc 47 3c 66 80 17 3e 7d 44 65 bc eb 8d 91 bd
       0.012194714 0.14795074 -0.01399338 -0.07107147
0003f0 ec 4f 0d 3e f7 cd b5 3c c9 30 37 bd 3a 18 19 3e
       0.13800019 0.022192938 -0.04472426 0.14950648

fc1.bias f4 [40]
000000 d4 c3 40 be 8b 15 07 3e ac c9 46 3d 88 62 51 bd
       -0.18824703 0.13191812 0.048532173 -0.051119357
000010 80 2d 96 bc a9 d9 aa bd be 23 36 3e 5a 22 d5 bd
       -0.018332243 -0.08342297 0.17787072 -0.10406943
000020 26 23 7e 3a 62 e6 cc bd b0 19 27 3c 44 29 3b be
       0.00096945686 -0.100048795 0.0101989955 -0.1827746
000030 19 a6 af bd 30 0e 2f bb d4 90 58 bd 76 1b 99 bc
       -0.085766025 -0.0026711337 -0.052872494 -0.018689852
000040 48 01 99 bd a3 aa ad bd e5 89 11 3d 36 08 a9 bd
       -0.074709475 -0.08479812 0.035531897 -0.08253519
000050 7b f0 f2 3d fa 14 56 be f5 b9 cc 3d 3e 97 eb 3d
       0.11862274 -0.2090644 0.09996406 0.115034565
000060 d8 4f 2d be d0 8e 18 bd b2 79 99 bd 95 1c de bd
       -0.16924989 -0.03724557 -0.07493915 -0.10845295
000070 3f 28 9b bd 98 94 34 3e 07 60 f8 bc 95 77 58 be
       -0.07576036 0.17634809 -0.030319227 -0.21139367
000080 a4 33 09 3e fa 95 9d bc 1e 69 9d 3b 8e 4e db bd
       0.13398606 -0.019236553 0.0048037907 -0.107083425
000090 4b 4e 79 bc da 33 12 be 5f e2 2a bc fa ef d9 bd
       -0.01521642 -0.14277592 -0.010429948 -0.10641475

fc2.weight f4 [1, 40]
000000 fc 9b 1f bd 0a 51 5b 3d 54 04 90 bd 7e 76 9f bd
       -0.038967118 0.05354408 -0.070320755 -0.077862725
000010 60 8d ac 3d c6 4d 69 bd 50 6b 24 3e dc 7c cc bd
       0.08425403 -0.056958936 0.16056561 -0.099847525
000020 53 39 1f 3c cb 6a b6 3c 25 da 19 bc 27 06 40 3d
       0.009718257 0.02226772 -0.009390389 0.046880867
000030 01 78 77 bd 43 24 a9 3c e8 b6 3d bc 70 d9 de bd
       -0.06041718 0.020647174 -0.011579253 -0.10881317
000040 f8 5b d2 bd cf 0a 04 3e ca 16 86 bd 03 ea 1a 3e
       -0.10271448 0.12894748 -0.065473154 0.15128331
000050 b4 2d 17 3e 99 41 3b bd 88 55 ba 3d 62 68 a6 3d
       0.14763528 -0.045716856 0.09098345 0.08125378
000060 22 e4 b1 3d 78 9b a4 3c e3 63 59 3c e9 13 50 3c
       0.08686091 0.020093665 0.013268444 0.012700059
000070 86 09 2b 3d fa b3 3f 3e b5 65 71 bc 43 69 ff 3c
       0.04175713 0.18721 -0.0147337215 0.031178122
000080 aa 04 64 3d a7 7d 0e 3c 65 9c 30 3d 68 2f 17 3d
       0.05566851 0.00869695 0.0431179 0.036910444
000090 35 57 a8 3c 46 f8 e8 3a bb ae de bc 5c 5d 42 bd
       0.020549396 0.0017774187 -0.027182927 -0.047452316
